sbcd/sbcd/environment/movielens/movie_bias.npy (npy, 29776 bytes, 1 tensors)

array f8 [3706]
00000000: f63e 6415 c2e4 ea3f dd1b 72d8 6ca3 b5bf
00000010: cf07 7ab6 0e7a e13f dc73 35e3 fbd7 d93f
00000020: 034c acb3 f927 d93f bd36 61c2 d361 e93f
00000030: ddd5 64b9 1ceb df3f ec6a 5e79 cec9 e73f
00000040: 525a 8b7a 6bec d63f dc29 1858 762f e73f
00000050: c93a bc9c 43ef d23f 2dc3 b36d 4865 a23f
00000060: 951a 0b87 0938 d93f 0fab b305 51b1 e13f
00000070: f217 0f14 46e4 d83f 319e bf50 774d db3f
00000080: 9f31 e7ec 5d54 c03f 8de4 0398 df43 cd3f
00000090: b64d 52b1 d46c d33f 4e28 99a5 72e5 d53f
000000a0: e179 765a 63b9 bd3f f46a bb49 ac64 eb3f
000000b0: eaf6 a359 94bc d73f 14d5 7ad0 fa31 f03f
000000c0: 1c95 ae2c eb04 d2bf 9b95 8af2 049a e3bf
000000d0: f9e4 cff5 857a de3f d8cf 9c7d 939f 8ebf
000000e0: d428 08fe ade0 e13f a39c ce93 a65c ef3f
000000f0: c949 5ee5 2de7 a5bf 9e84 cab6 d4cb 7bbf
00000100: fdcc 72e7 aa4c d0bf 9fb2 4ea8 5e25 d13f
00000110: feaf cc7d 0807 d03f 7eea 50c7 e3f9 d6bf
00000120: 8e76 c52e edc4 cbbf a54e 6116 251f ce3f
00000130: 7680 e054 b70d ea3f d493 cc24 4bae e03f
00000140: ac33 0a68 7a1d e43f 9232 e691 4514 df3f
00000150: da63 5656 3d85 d63f 69ee eb39 44a0 e33f
00000160: 1bc3 ab17 6d00 ec3f e6d1 6ffe 9969 d63f
00000170: 36cd a5ac 772c c93f a3ad 28a3 a262 eb3f
00000180: 396b 3835 e265 e83f 3507 32e9 3dd1 c83f
00000190: 6fc1 786e b65a e63f cd14 58eb d1f2 e43f
000001a0: d9c6 6359 14a4 e23f ca5c c29d b964 d23f
000001b0: 1892 3a3c 0461 d73f fea4 e549 2ab1 e33f
000001c0: 4796 44eb 2861 b83f 0535 7e52 04e6 e03f
000001d0: cec9 df13 eea8 b7bf 6438 a8d7 b04a d93f
000001e0: 13dc a7ec 0dc9 b6bf 0ae1 3221 624a da3f
000001f0: ae0d bb74 c4d5 bd3f 44ae ff52 f16f e53f
00000200: f13a fff3 8ec3 da3f 1101 1325 5999 d3bf
00000210: cd2a f3fd 2af0 dabf 1db9 16b4 4e8d e23f
00000220: 89a5 5fbc 215f e23f 2e86 2357 67a2 d6bf
00000230: 2439 f64b 297b ea3f 5961 1438 42b6 e43f
00000240: cdde b859 65d0 debf f33c 671e 07dc e5bf
00000250: 47fb 1a48 50da c2bf 11e5 ec2f 39a5 b13f
00000260: 5699 3fce 8eda e33f 0596 0641 314f e23f
00000270: bd1f bc6b a792 e03f 5a0c 72e4 d37c d0bf
00000280: 9e8a 6dcc 23d5 b83f 8b34 e814 e8c6 d23f
00000290: 8fe7 9426 9b4d d73f 63a6 3907 53ed 9cbf
000002a0: 2255 24eb a7ac e13f 8787 b9a6 6b79 e23f
000002b0: 63dd 31f5 c585 e0bf 9f0e ea3f 75fc e23f
000002c0: 5503 8b58 c936 d83f e87f 5136 abc9 c43f
000002d0: cf4a 9379 0e90 ca3f be72 8217 a98b e5bf
000002e0: 8f8f 3138 a4c3 e53f 2185 8018 7627 ab3f
000002f0: ca69 cf40 5ef3 8fbf 6c4e a578 df54 d93f
00000300: 0607 f363 76d4 da3f 7422 897e de2b db3f
00000310: 2fe2 cd0f 9dc2 dfbf 8097 fc47 0260 db3f
00000320: 7238 bcb5 dfc0 d63f 9e57 d6dd ac78 e53f
00000330: 405f 7f5b ed3d cd3f f84c a276 00e2 c83f
00000340: 3ddb b681 3ffe e73f e58f 4d2f 0de1 e53f
00000350: f7be c669 97b7 d33f 9d28 f429 317e e4bf
00000360: 6892 b3c9 ba10 d73f ffab 24f4 63ba da3f
00000370: 492d 77fc 0bd5 d23f 51a1 8d63 59ab e03f
00000380: 1c2b 1ba0 6388 a9bf dec7 9894 03e5 c13f
00000390: e931 5782 6720 d2bf f690 63f6 2183 e03f
000003a0: a454 a3bc 2676 d83f ba39 6ea8 db0a adbf
000003b0: 6ad1 1212 e149 e2bf a4d5 37f9 aacb c2bf
000003c0: c6f3 f873 0e8e c23f 8e6f 3bb1 dcc6 e03f
000003d0: 2703 2e18 3a07 bdbf 5a70 2786 f43d d43f
000003e0: 548f c1e5 924a e63f c4a3 6f64 4a9d d2bf
000003f0: 02d6 23ec db56 dbbf 656f bdf1 b071 eb3f
00000400: 9797 9682 86bf e93f 7af3 f30c 8f3b d63f
00000410: 7874 2a7d 331c e3bf 19c2 7ce6 dc9d e4bf
00000420: 5576 48c0 e81a e73f 3324 a682 39b5 d9bf
00000430: 3684 c38b b702 e33f 27c4 d79f 7f06 e03f
00000440: 89b7 db53 35f5 e13f 1d41 244b c177 b6bf
00000450: 6fe4 beb7 141c c7bf d2ff 1790 3808 d63f
00000460: d6d3 39cb a471 d13f 99f2 586f a2d3 a7bf
00000470: 4e49 e924 c50e ca3f 473b 1068 90c3 d23f
00000480: a29b f560 1514 b8bf 30a0 943b 700c b63f
00000490: b34d 9971 8380 b1bf 3a35 06a3 8d69 e23f
000004a0: 6514 03c8 52da a43f 1c0b dbd8 1854 e43f
000004b0: 89f2 405c 92d9 c03f 26c5 0eb4 c2ad e23f
000004c0: 2e25 75cc 6075 da3f b615 2652 6592 d73f
000004d0: 06aa 90ee 1e6c e3bf f403 c247 8a0c c43f
000004e0: 8b3e b1ba 20bb c73f 8115 2621 e78c d1bf
000004f0: 11cf ebfe 03a3 dd3f 2890 2fba 0389 e33f
00000500: 639f 930e cad3 b1bf 2018 8b18 1363 e6bf
00000510: 5fe6 1b43 4a2b e13f 4e0b e055 9bb7 d5bf
00000520: d170 e528 0de2 d93f 8807 e59a 8411 cb3f
00000530: 101f 3106 0da1 95bf 4640 2fdf 1833 f13f
00000540: 0293 1d9a 33a6 d83f b342 4d72 ff18 d03f
00000550: 97b7 57fe 9fbf d93f 9466 7842 c668 db3f
00000560: 48d2 795c 17ed d33f 2c53 a8e9 b17b b1bf
00000570: 62d3 e4fb 0c04 e33f ae1e 655a 5cae db3f
00000580: 06cc 8758 c5db d83f be00 2195 9455 d93f
00000590: ad9e 4c47 9878 dfbf 8870 c1fa ebde 9bbf
000005a0: 76ce 737d de61 e2bf 0889 ebb2 3acf eebf
000005b0: b406 303a 00c6 c33f 6fcb 5a03 e5b3 d93f
000005c0: 6804 26c3 7035 e23f 47c8 605d 598e c23f
000005d0: 0827 7802 9a14 e23f 7686 d55f 573b d5bf
000005e0: eab3 5663 8171 cdbf b06d 5cd9 d32f cb3f
000005f0: 51c9 836a 69a8 c6bf 9695 ba54 dd0a cdbf
00000600: 5cbb 7d57 61af b83f 1d40 d2bf 3cde d6bf
00000610: b85f 8995 a8b8 e03f bbda c2a8 ba1c bf3f
00000620: bee2 b18e 41af b7bf 5848 8f87 fea4 e2bf
00000630: 8966 55d4 83cd d23f 060d e9af f58b e63f
00000640: 572c cb4e 3f54 b2bf 5ba1 2306 e045 d03f
00000650: 7c23 7cc4 04bc cdbf d26e 2ce3 a479 e03f
00000660: e9f8 9628 cef3 d93f 12f6 924b f034 bd3f
00000670: cdab 5b6e b866 e83f 89b1 cf4d d2e1 cd3f
00000680: 6dbc 2046 9252 db3f a93a f02b 9f6b e33f
00000690: f947 4e9f c3bf e13f 0194 dadd d4c9 b33f
000006a0: 76bf beab 1ce9 b13f 7119 5c77 39a9 db3f
000006b0: d736 644b 17d4 9b3f 2dac d908 300e e23f
000006c0: d07a ffc4 fc75 d93f e928 05f9 d588 e13f
000006d0: 8f0e c7e6 83d6 be3f 07b9 2091 37aa ce3f
000006e0: fcf5 7c96 76dd d03f f227 ae68 acae c13f
000006f0: d83f 5536 6792 d9bf 7646 61c8 bb4e d0bf
00000700: 5e73 bcaa 0260 b33f ef87 7213 eddc c83f
00000710: a9de d71a f2c6 d13f f8eb d941 bf2f c43f
00000720: 109a 49c4 0dcf ca3f 75ed 93e1 0e71 cc3f
00000730: 753a 8e0c f4fb d03f 7fa8 d367 6e49 cdbf
00000740: 7bce 73cf 05ca d33f fda4 7231 21b9 dc3f
00000750: 4058 3b5a 39df bc3f 62b9 70e2 4882 b5bf
00000760: 0052 cf24 b6ae e93f 76d5 a10f aac6 d43f
00000770: 606c 63ea 5bc2 a13f 2ead 01e0 0333 da3f
00000780: b6e0 2541 663f be3f cca1 06c5 8fc1 fcbf
00000790: 3137 bd92 9d3c e23f 0e55 9231 66dc af3f
000007a0: 46c0 ed6e a03a e33f e58a 05f5 9107 e23f
000007b0: 4a67 999f 5175 e53f 515e 87e9 b88e cf3f
000007c0: c79e 34f4 69c0 c13f d4b0 8fdc e3f7 da3f
000007d0: 70de 94e1 0cfb d9bf 244d 2e11 128d 903f
000007e0: efe0 765d 2652 bdbf 11d3 5c8e 444d dd3f
000007f0: 20da 56e7 bf89 813f 3c87 976a d7e8 db3f
0.8404245775036248 -0.08452492031402366 0.5461495937345208 0.40380761326178827 0.3930649046534997 0.7931917950133635 0.4987251101004782 0.7433845873341318
0.35817992179128055 0.7245437355607538 0.29585352235964685 0.03592897738588472 0.394045240286155 0.5528950797427984 0.38893272360689857 0.42660315404507104
0.12757467334303116 0.22863383219354141 0.30351750675728384 0.3421293847246759 0.11611004789890657 0.8560391845779507 0.3708849788089156 1.0122020858519294
-0.28155021060440943 -0.6125511872420931 0.4762282276638668 -0.01495280482377119 0.5586767159996051 0.9800598990303978 -0.042779382943212214 -0.006786185182734132
-0.25467941858660464 0.2679058688761788 0.2504292706023533 -0.35900206055126904 -0.21694721969372605 0.23532546608713747 0.8141743333581093 0.5212760657055875
0.6285984069851245 0.4856122898861851 0.35188229972260177 0.6133137828141574 0.8750520193408166 0.350195406411585 0.19666953973828932 0.8557904421517616
0.7624369658909479 0.19388555418486822 0.698573318257372 0.65464111295355 0.5825292344945537 0.2873977699868645 0.36529641992299977 0.6153766101171241
0.0952325415024343 0.5280782328788126 -0.09242141709527305 0.3951837640787572 -0.08900534656264396 0.41078999750199385 0.11654308175916725 0.6699148770398513
0.41818593814689026 -0.30623463268786205 -0.42090868758957073 0.579749442802299 0.5741127661869295 -0.3536623335804475 0.8275343402508821 0.6472483725838557
-0.4814694763367527 -0.6831088632406178 -0.1472874023511059 0.0689273588185595 0.620429423169109 0.5721670408281062 0.517902098102233 -0.25761887845164255
0.09700225582995833 0.2933902935190608 0.3641116978429801 -0.02824907046889392 0.5523261635413841 0.5773218399374266 -0.5163297451935417 0.5933176277471438
0.3783439030340124 0.16240444328559467 0.20752125679299246 -0.6732984027072104 0.6801320169001758 0.05303544091317237 -0.015600906708574853 0.39580523282822955
0.41921767960239753 0.42455255848884765 -0.4962532667482575 0.4277349188799846 0.3555220865972678 0.6709808666953341 0.22845236747411413 0.19439702789950508
0.7497861417276465 0.6837221073042171 0.30808053331109825 -0.640404302540691 0.36039609620482915 0.4176263698779507 0.29425334601247194 0.5209166473769448
-0.04986869172497263 0.1398014522142707 -0.2832278035027956 0.5160074054988673 0.38221138402634325 -0.056723465261814224 -0.5715184548376275 -0.1468404499898216
0.14496021902769324 0.5242751561704482 -0.11339152422261788 0.31628144360525356 0.6966032493041703 -0.2908502560445039 -0.42717645702882134 0.8576283189281467
0.8046295691062707 0.3473851801389213 -0.5971925205846125 -0.6442703725534243 0.7220348125008039 -0.4016860748166124 0.5940816621551963 0.5007932779245764
0.5611826551300833 -0.08776481709015056 -0.1805444619365377 0.34425176688818937 0.27256126257208046 -0.046536518184869986 0.20357574751194324 0.2931862846607384
-0.0940564500539112 0.08612729506114714 -0.06836720965775704 0.5753849205081345 0.040728175082713126 0.6352657542668996 0.13163976196837648 0.583711005854785
0.41341419188082085 0.3683102895959921 -0.6069483432268619 0.15663269523432144 0.18539818874204558 -0.2742250274389662 0.46307468313828887 0.6104754101220395
-0.06963789802432312 -0.6995940665590332 0.5365344343874304 -0.3393314684509975 0.40442208284163167 0.21147210658278603 -0.02112217283527601 1.0749748914859238
0.38514413881630116 0.2515257469395166 0.4023208602728742 0.4282699250339672 0.3113459017834299 -0.06829368547944331 0.5942444724847571 0.4325171358836809
0.38841375012924606 0.3958484131180845 -0.49173552477666754 -0.0272175666617476 -0.5744469118348678 -0.962796544507257 0.15448000756446378 0.40160489394764104
0.5690234958166345 0.14496914920306578 0.5650148437718778 -0.3317469058875767 -0.23002641058465595 0.21239708054859596 -0.17701451970021734 -0.22689406048918376
0.09642609010709918 -0.3573142884497445 0.522541324676232 0.12153212185044542 -0.09251794561158541 -0.5826409003877968 0.29379363761618343 0.7045849261998292
-0.071598011719446 0.25426483726052646 -0.23230037302007733 0.514849132250186 0.40550569499818195 0.11408902974195481 0.7625391154700708 0.23345402526264206
0.42691475723672206 0.6068874223872928 0.5546587096634986 0.07729845444062279 0.06996325676914047 0.43220364242770076 0.027176250435380602 0.5642318890435313
0.3978263782318381 0.547953592650882 0.12046074279992978 0.2395696123725843 0.2635170430765752 0.1381431113371146 -0.39956074052770196 -0.25480551308019217
0.07568375271189384 0.19424212884501865 0.27776768323335915 0.15770712581056023 0.20944377979613238 0.22220026030104703 0.2653780100453454 -0.22880344457309218
0.3092054868604703 0.4487994177712407 0.11278112843442134 -0.08401923683479631 0.8025770873014721 0.32462550665453394 0.03468596683679759 0.40936371684684303
0.11815489855314606 -1.7972562500309435 0.5698993555067543 0.062228387404653515 0.6009065786911456 0.5634240899638284 0.6705711476490503 0.24654303934834101
0.13868450569247256 0.4213800100249163 -0.4059478953308604 0.016163141535412553 -0.11453475744099582 0.457841052080128 0.008563517806448095 0.43608651551595634
