sbcd/sbcd/environment/movielens/user_bias.npy (npy, 48448 bytes, 1 tensors)

array f8 [6040]
0	0x3fc69ef6ee114e74	0.17672621368784613
1	0xbfc0ae4dbc2c5c9b	-0.13031932533406096
2	0x3faa3135825f1e68	0.051156685032364646
3	0x3fbd3aec8518319c	0.11418035745027172
4	0xbfeb2008cf9ba05c	-0.8476604513971426
5	0x3fc16999caa89363	0.13603517909464377
6	0x3fd8f100f7c8e44f	0.38970970342376615
7	0x3fc8d86353f03bb9	0.19410363768153419
8	0xbfc8e28bf1cbaed6	-0.19441365534236493
9	0x3fd966dbb946e44b	0.3969029721589023
10	0xbfe00a3eefec06c0	-0.5012507139183171
11	0xbfcd3a9812776b40	-0.2283506479423867
12	0xbfd893d60172d338	-0.3840231908937315
13	0xbfe020f8ad0f769a	-0.5040248279653554
14	0xbfd7b261a5f3fc1f	-0.37026253897050937
15	0xbfb0549687e76ff9	-0.06379071062059428
16	0x3fd5062e3faa24d1	0.32850223748444046
17	0x3fb78cf0335a0c89	0.09199429753975798
18	0xbfc046d4e0d2760d	-0.1271616075290897
19	0x3fd1ce8525a627bc	0.2782299869219249
20	0xbfdfd65e720ca2fd	-0.497459041000681
21	0xbfdb53c1671cdd81	-0.42698702878575295
22	0xbfdd0547effdec3e	-0.4534473270102274
23	0x3fb7e68b4d8500ee	0.09336157457892444
24	0x3fc2508a6664cc76	0.14308290481276104
25	0xbfdc6543ec3b0e55	-0.44368074483302183
26	0xbfb29b2844ab7cda	-0.07268001247892944
27	0xbfd2cfbffa461da9	-0.29393004837808206
28	0xbfd30f17a05761e7	-0.2977961603005767
29	0xbfde72a69128406f	-0.475747720484839
30	0xbfbda8ffcc5b07c2	-0.11585997332716061
31	0xbfd5a73ab92a26d3	-0.33833187181936103
32	0xbfd78b29a1fcb858	-0.367868812742818
33	0x3fcc9ae7393b4b0b	0.2234772710276832
34	0xbfdcfb928e67b4ab	-0.4528547659563837
35	0x3fdd0547a4632d78	0.4534472565980745
36	0x3f9b71676731b667	0.02679978911731098
37	0xbfa1b0ed57ef3806	-0.03455297182482302
38	0xbfbd5f727198266c	-0.11473765633868432
39	0xbfc190cf061cf5d9	-0.1372317104195833
40	0xbfb9c3018ebb28dd	-0.10063180670400436
41	0x3f9dbd75204b813a	0.029043035598875756
42	0x3fd74ab90be91c62	0.3639357200922345
43	0xbfb65104d4b74df4	-0.08717374985945253
44	0xbfe36bcdd3648a97	-0.6069096688045929
45	0x3ff2ff5fa4a7f8ef	1.1873470718269876
46	0xbfd104b6ebc91dc3	-0.2659127523988582
47	0xbfde6e45f78ce739	-0.47548054861873684
48	0xbfabc1f361aaf64a	-0.054214101478902224
49	0xbfd34352d534cdb5	-0.3009841043560429
50	0x3fc5e84d2ac8d381	0.17115177716337018
51	0x3f9ccd702e8f5085	0.02812743457964519
52	0x3fe3d0207bc75007	0.6191561143446059
53	0xbfa51a22d0a9ad83	-0.04121502682832114
54	0x3fb071e35fb2ec81	0.06423779570006795
55	0x3f6d3bcac806f954	0.003568550164543863
56	0xbfe2e8101119b8d5	-0.590827973746651
57	0x3fd0a4eac3c75a56	0.26006573790565335
58	0xbfe1f593205c894c	-0.561227381902691
59	0xbfc5062025b683f8	-0.16424943772747702
60	0xbfd29052bf2ca0f1	-0.29005879086845626
61	0xbfc589c8205f4b44	-0.16826726513553514
62	0xbfc47e9099fb58d1	-0.1601124526848197
63	0x3fd6435890278803	0.3478604705579757
64	0x3fdec34ed16241f8	0.4806706471217974
65	0x3fc1cd8bd10ab61d	0.1390852709495655
66	0x3fd0cb5da30b9280	0.26241246149428576
67	0xbfd2088298b971de	-0.2817694179009588
68	0x3fc38645c2d33a68	0.1525351716322405
69	0x3fbe7b37ad7033af	0.11906764969189852
70	0x3fc66033c87a56e8	0.17481086052855876
71	0xbfc34e8c453b23b2	-0.15083459263248994
72	0x3fb47bc483241d30	0.0800135440987233
73	0xbfa037b4c970ae7d	-0.03167500456796988
74	0x3fe4c1fa89d6d117	0.6486790363474338
75	0x3fd03af7c73da049	0.25359911400892493
76	0xbfe057a5b1439135	-0.5106991254984111
77	0xbfba002578db53fb	-0.10156473351101163
78	0xbf7cfe20624f6ff0	-0.007078291416259916
79	0x3fc0cdbe828a03d3	0.1312788140676547
80	0x3fcf261f2a09e688	0.24335088303250907
81	0x3fd25eeefcf14820	0.2870442838803928
82	0x3fa9e893c98915bb	0.05060254893445967
83	0xbfceff0c8b669d15	-0.2421584778469216
84	0xbfd492504729a6ef	-0.3214302725742603
85	0x3fe493c5332c9804	0.6430383681770313
86	0xbff1610257b4776a	-1.0861838747000214
87	0x3fba97a9dd4f52ad	0.1038767018611206
88	0xbfe139d65281e722	-0.5383102046464254
89	0xbfa44f0db5e469cc	-0.03966563077320337
90	0x3fe54a29914e3520	0.6653030241010676
91	0xbfe67c0888404ad2	-0.7026407872347937
92	0xbfd2392788daeb22	-0.2847384296871259
93	0x3fcaaba43e3f63ef	0.20836308516916754
94	0xbfd0e447d3cfd19a	-0.2639331406092197
95	0xbfdd94e235fd927f	-0.4622121360064639
96	0x3fd8f80ce01b8f63	0.390139788489469
97	0xbfa3032b7c6d1bc9	-0.037133559168573145
98	0xbfe1c04c175c2290	-0.5547237831352323
99	0xbfe4d5f20ed03aa1	-0.6511163987468828
100	0x3ff232f6a3d68b10	1.1374422454761692
101	0xbfe357cda15930ea	-0.6044681693397511
102	0x3fe37614ff9c90df	0.608164309731844
103	0xbfa45873ff0dff32	-0.039737343678096684
104	0x3fd7671871e54bbf	0.36566744921327293
105	0x3f9f73615ccaa6c0	0.03071357849936507
106	0xbfd45b2779342020	-0.3180636104229979
107	0xbfdedde8c28225ef	-0.48229426379165735
108	0x3fc72592ecf0050c	0.18083416527955654
109	0xbfcef4fd8ff8b4d9	-0.2418515160547148
110	0xbfc0ca32aa9cb830	-0.13117059069321746
111	0x3fb8b8db58b1a505	0.09657069125536928
112	0x3fc53bb81845efc8	0.16588498292173726
113	0x3fbb95509a330f0f	0.10774711384425138
114	0x3fdc73d0d29885a4	0.4445688301658157
115	0x3fd73764caa3d7e0	0.36275596417487854
116	0xbfbf802006e27810	-0.12304878395158902
117	0xbfbcac019319ed59	-0.11199960557307999
118	0x3fb54e05c0874dcc	0.08322177839664063
119	0xbfe2286946cd8093	-0.5674330122819974
120	0x3fe966762abc1fe5	0.7937575182595508
121	0xbfe4d56439b34036	-0.6510487677533152
122	0xbfc6b7ca21df36ea	-0.17748381284621156
123	0x3fd25ed8dc27ec94	0.2870390081367955
124	0x3fcff34c5cca409b	0.2496123745991142
125	0x3fc3276dfab6acaa	0.14964079610704079
126	0x3fae4cce4b79e94b	0.05917973204937484
127	0x3fe1e04959385199	0.5586287252977399
128	0x3fd6842430be627a	0.35181526908994665
129	0x3fdbe934254f6e4c	0.4361086239202663
130	0xbfe7b3180abd7294	-0.7406120500341609
131	0x3fc82a966ba6d4d7	0.18879966980390492
132	0x3fb20edfe875a952	0.07053946900638167
133	0xbfdb92729699a768	-0.4308134527878935
134	0x3fae73475bc8d261	0.05947325702110074
135	0xbfe6e0d2e8176fcf	-0.7149443181074221
136	0xbf70049b15be2f55	-0.003910642433662866
137	0x3fda580d16ef7a18	0.41162421455183695
138	0x3faefa12cb53e16f	0.06050165874507029
139	0xbfd41b65bc563b29	-0.3141722048975902
140	0xbfd3aa66e515ba88	-0.30727550860948627
141	0xbfe5a132748ff4c2	-0.6759273792846658
142	0xbfd152c69c401cdb	-0.27067723521072445
143	0xbfc861a23cfbd938	-0.19047954538081924
144	0xbfe77be56a40f95e	-0.7338740420598631
145	0xbfba75b2787db095	-0.10335841600107394
146	0xbfc5ac6867407d53	-0.16932396928403168
147	0x3fb1c674bd6064c5	0.06943444846583009
148	0x3fcf0242a0c61bab	0.24225647783552282
149	0x3fccec16b892d986	0.22595485699066503
150	0x3fab59d84cf0537d	0.05341983737176912
151	0x3fc9c4cd45d4f05d	0.20131841573482037
152	0x3fe8b8b5b8d7dc87	0.7725475893229409
153	0xbfe3f46f6e1afb48	-0.6235882902618437
154	0xbfdbf5b79ede4887	-0.43687239183885435
155	0x3fe02599eba97029	0.5045899966021398
156	0xbf5e8163805b826e	-0.0018619033521007039
157	0x3fa8723977ce64c9	0.04774646365621888
158	0x3f805a3eea3a3bf0	0.007984630129866915
159	0xbfd5198a7d1e0529	-0.32968389719470054
160	0x3fd9a15e1fda17c3	0.4004741011671024
161	0x3fdff16dd3327fa8	0.49911065697414836
162	0xbff1a38ccefdee62	-1.1024292073842834
163	0x3fd6a604a853c630	0.3538829463787776
164	0x3fc835b96012e282	0.18913953009702672
165	0x3fb52c7c663b5bd2	0.0827100514974142
166	0xbfdb69c299accc05	-0.42833008773158127
167	0x3fb7cf6d15af25ca	0.09300882129095736
168	0xbfd241b84abeeba1	-0.28526122378723967
169	0x3fb77abe4967cb45	0.09171666423916942
170	0x3f9dad22cde07979	0.028980773750043796
171	0xbfdab5ef8a3c3e09	-0.41735447406333087
172	0xbfc3d0311ea90cf6	-0.1547910117825279
173	0xbfb4c5150c6c5167	-0.08113223603533513
174	0x3fb84ac09c877da6	0.09489063092723046
175	0x3fbf4cfb927e8400	0.12226841284292789
176	0x3fc16e4a2b15d503	0.13617827514432443
177	0x3fb5e1f80590de7c	0.08547926078687768
178	0xbfe938ab98dd7f88	-0.7881677613877267
179	0xbfcea6054df42588	-0.23944155031521697
180	0x3f89a1f93c85b368	0.012515971335881296
181	0xbfa27f46e4af3c86	-0.03612729589041756
182	0x3fc5473e369fce4d	0.16623666445922183
183	0x3fd2aa264d7af311	0.2916351086276317
184	0x3f94803673ab40b4	0.02002034264552384
185	0x3fe2f64384e54642	0.5925614925019504
186	0x3fd6f1d2d03a9681	0.3585097344860984
187	0xbfd22433b59ccfe5	-0.28345959411239924
188	0x3fd17842da036e19	0.2729651574170205
189	0xbfc93b9625c4911b	-0.1971309360898282
190	0xbfba3f034fdcc851	-0.10252400111929318
191	0xbfd44ed8adc5378e	-0.31731240243686265
192	0xbfd0072b2f49d7d6	-0.25043754213345204
193	0x3fdca611849cc100	0.44763601255819196
194	0x3fd86474b6b40e34	0.3811313423359224
195	0xbfb785f54a1bdc2e	-0.0918877893380887
196	0xbfbf67ccd6d1eb24	-0.1226776146376492
197	0x3fadd486daaaeefd	0.05826207560809669
198	0xbfc22d19158fc94f	-0.14200128128829667
199	0x3fa1779cce20639f	0.034115696107796405
200	0x3fd21d0d6979e5be	0.2830232172051089
201	0xbfd2606b4e5663c9	-0.2871349587454089
202	0xbff3db310b4f1270	-1.2410135690453465
203	0xbfc640faf1a3919b	-0.1738580398442878
204	0xbf990e576847327c	-0.02446877073252772
205	0xbfe153a84f8bd3bd	-0.541462092746421
206	0xbf93fb7009163a96	-0.01951384597264879
207	0xbfd2982315a31501	-0.29053570855133165
208	0xbfd2608f210257e6	-0.28714349959898156
209	0x3fe822508fb6bcef	0.7541888052855067
210	0x3fdcaee27d171191	0.4481741162856219
211	0x3f9636ed56c7155a	0.021693905278671856
212	0x3fd6577986cb0d48	0.3490890327777447
213	0xbfd64295322298ad	-0.3478138913727758
214	0x3fe85cab404028b5	0.7613121275801605
215	0xbfda9b0f2720d618	-0.4157140619384747
216	0xbfbc33f4da6dd7dd	-0.11016779263249483
217	0xbfd3e8c6107f8dbb	-0.3110823784938607
218	0xbfd1776b794a1041	-0.2729138073411868
219	0x3fd1cb4209b3bb2e	0.27803088138073206
220	0xbfd469a5dda1f896	-0.31894823688333795
221	0x3fd282aa8f9fd614	0.2892252352315563
222	0xbfc995d99aa3fb42	-0.19988555956657633
223	0xbfe044d698692721	-0.5084031082890058
224	0xbfdfc147c4651c6d	-0.49617189578243065
225	0xbfc1bd5ef9a04d1a	-0.13859164418008946
226	0xbfd7b39e975916a6	-0.3703381040580588
227	0x3fd7c746c68e5a9e	0.3715378703140376
228	0xbfa4a5d4cd8ea41f	-0.04032769212000908
229	0x3fd6b1ebc5bb6f0c	0.3546094351747662
230	0x3fd22cf78f17f139	0.28399456953026775
231	0xbfd4e406381416b2	-0.3264174983636209
232	0x3fe395e465b28009	0.6120473848604898
233	0x3fd842d12d64d7d9	0.37907819207191334
234	0x3fa2d95990e1448c	0.036814497886220016
235	0xbfda46f93e2c326f	-0.4105818850664837
236	0xbfd4f52b35b98f2a	-0.3274639153153084
237	0xbfb61db1772742a0	-0.08639058264749133
238	0x3fb9953028119f35	0.09993267992251449
239	0xbfe063044802e78e	-0.5120870024177167
240	0xbf8b384c3e3736d0	-0.013290973328277472
241	0xbfd7d4ff9705a073	-0.3723753905128497
242	0xbfd6d806b2443bdc	-0.3569351902851261
243	0x3fd3e7c8706c2541	0.3110219095111298
244	0xbfe944b1a42f8b09	-0.789635487246728
245	0x3fcb682291842a26	0.21411544900213747
246	0xbfbf8d318fa8996e	-0.12324819333352874
247	0x3fdb297eeb578f7e	0.42440770132656513
248	0x3fb83c2206174bb9	0.09466755531984362
249	0x3fc7cce079d1f067	0.18593984554525209
250	0xbfc1bc61896fa7f6	-0.13856143198728404
251	0x3fda35ee5fd0df1d	0.409541696138591
252	0x3f993777a9d937b0	0.024625653974275685
253	0x3f8f5f772ba25cd2	0.01531880475913142
254	0x3fd7ceab8e480355	0.3719891442743138
255	0x3fcba24c8428e87a	0.2158904691039572
